…
            "__________________________________________________________________________________________________\n",
            " Layer (type)                   Output Shape         Param #     Connected to                     \n",
            "==================================================================================================\n",
            " input_1 (InputLayer)           [(None, 32, 32, 3)]  0           []                               \n",
            "                                                                                                  \n",
            " conv2d (Conv2D)                (None, 32, 32, 32)   896         ['input_1[0][0]']                \n",
            "                                                                                                  \n",
            " conv2d_3 (Conv2D)              (None, 32, 32, 32)   896         ['input_1[0][0]']                \n",
            "                                                                                                  \n",
            " activation (Activation)        (None, 32, 32, 32)   0           ['conv2d[0][0]']                 \n",
            "                                                                                                  \n",
            " activation_3 (Activation)      (None, 32, 32, 32)   0           ['conv2d_3[0][0]']               \n",
            "                                                                                                  \n",
            " dropout (Dropout)              (None, 32, 32, 32)   0           ['activation[0][0]']             \n",
            "                                                                                                  \n",
            " dropout_3 (Dropout)            (None, 32, 32, 32)   0           ['activation_3[0][0]']           \n",
            "                                                                                                  \n",
            " max_pooling2d (MaxPooling2D)   (None, 16, 16, 32)   0           ['dropout[0][0]']                \n",
            "                                                                                                  \n",
            " max_pooling2d_3 (MaxPooling2D)  (None, 16, 16, 32)  0           ['dropout_3[0][0]']              \n",
            "                                                                                                  \n",
            " conv2d_1 (Conv2D)              (None, 16, 16, 64)   18496       ['max_pooling2d[0][0]']          \n",
            "                                                                                                  \n",
            " conv2d_4 (Conv2D)              (None, 16, 16, 64)   18496       ['max_pooling2d_3[0][0]']        \n",
            "                                                                                                  \n",
            " activation_1 (Activation)      (None, 16, 16, 64)   0           ['conv2d_1[0][0]']               \n",
            "                                                                                                  \n",
            " activation_4 (Activation)      (None, 16, 16, 64)   0           ['conv2d_4[0][0]']               \n",
            "                                                                                                  \n",
            " dropout_1 (Dropout)            (None, 16, 16, 64)   0           ['activation_1[0][0]']           \n",
            "                                                                                                  \n",
            " dropout_4 (Dropout)            (None, 16, 16, 64)   0           ['activation_4[0][0]']           \n",
            "                                                                                                  \n",
            " max_pooling2d_1 (MaxPooling2D)  (None, 8, 8, 64)    0           ['dropout_1[0][0]']              \n",
            "                                                                                                  \n",
            " max_pooling2d_4 (MaxPooling2D)  (None, 8, 8, 64)    0           ['dropout_4[0][0]']              \n",
            "                                                                                                  \n",
            " conv2d_2 (Conv2D)              (None, 8, 8, 128)    73856       ['max_pooling2d_1[0][0]']        \n",
            "                                                                                                  \n",
            " conv2d_5 (Conv2D)              (None, 8, 8, 128)    73856       ['max_pooling2d_4[0][0]']        \n",
            "                                                                                                  \n",
            " activation_2 (Activation)      (None, 8, 8, 128)    0           ['conv2d_2[0][0]']               \n",
            "                                                                                                  \n",
            " activation_5 (Activation)      (None, 8, 8, 128)    0           ['conv2d_5[0][0]']               \n",
            "                                                                                                  \n",
            " dropout_2 (Dropout)            (None, 8, 8, 128)    0           ['activation_2[0][0]']           \n",
            "                                                                                                  \n",
            " dropout_5 (Dropout)            (None, 8, 8, 128)    0           ['activation_5[0][0]']           \n",
            "                                                                                                  \n",
            " max_pooling2d_2 (MaxPooling2D)  (None, 4, 4, 128)   0           ['dropout_2[0][0]']              \n",
            "                                                                                                  \n",
            " max_pooling2d_5 (MaxPooling2D)  (None, 4, 4, 128)   0           ['dropout_5[0][0]']              \n",
            "                                                                                                  \n",
            " concatenate (Concatenate)      (None, 4, 4, 256)    0           ['max_pooling2d_2[0][0]',        \n",
            "                                                                  'max_pooling2d_5[0][0]']        \n",
            "                                                                                                  \n",
            " flatten (Flatten)              (None, 4096)         0           ['concatenate[0][0]']            \n",
            "                                                                                                  \n",
            " dropout_6 (Dropout)            (None, 4096)         0           ['flatten[0][0]']                \n",
            "                                                                                                  \n",
            " input_2 (InputLayer)           [(None, 32, 32, 3)]  0           []                               \n",
            "                                                                                                  \n",
            " dense (Dense)                  (None, 10)           40970       ['dropout_6[0][0]']              \n",
            "                                                                                                  \n",
            "==================================================================================================\n",
            "Total params: 227,466\n",
            "Trainable params: 227,466\n",
            "Non-trainable params: 0\n",
            "__________________________________________________________________________________________________\n"
…
